robosuite/model.pt (torch, 563151 bytes, 8 tensors)

fc1.weight f4 [256, 29]
000000 36 56 18 3e e1 7d 1e be a7 8f f9 be 3f 74 3f 3e
       0.14876637 -0.15477706 -0.4874241 0.18696688
000010 f8 ce f8 bb 13 a4 bd 3e ad 66 cc bd d2 fc df be
       -0.007593032 0.3703924 -0.09980521 -0.43747574
000020 04 79 09 bf fd 3d 13 3b f1 dd e6 3d fc 5d 0a bd
       -0.5370028 0.0022467368 0.11272801 -0.033781037
000030 91 2a 34 be fa 58 a0 be a6 ef 21 be f6 1d 06 3d
       -0.17594363 -0.31317884 -0.15814075 0.032743417
000040 7c 83 0d be 2c 83 9b 3c bc ba 42 bf 3d da e2 3c
       -0.13819689 0.018983446 -0.76066184 0.027691955
000050 41 ef 3d 3d c9 71 b4 bd af 9f 83 3b a1 f2 b0 3d
       0.04637075 -0.08810765 0.0040168385 0.08640028
000060 cb 42 5b be a1 f3 b1 3c 9a 1c d1 be 39 50 43 3e
       -0.21412198 0.021722617 -0.40842134 0.19073571
000070 8b 3a 8e 3e 25 96 c9 bd fb fa 6e 3e cb 7e f2 3d
       0.2777904 -0.09843091 0.23337929 0.1184059
000080 9d 13 3b 3f c8 de 4c 3f dd 8b 84 3f 90 25 04 bf
       0.730768 0.8002744 1.0355183 -0.51619816
000090 8d 14 75 be 4e a1 29 3e 2b 24 80 3b 41 7b e6 bc
       -0.23933621 0.16565439 0.0039105616 -0.028134944
0000a0 7d d5 11 3e a3 b6 43 be 28 0c 36 be 85 5c 4a 3e
       0.14241596 -0.19112639 -0.17778075 0.19761856
0000b0 62 04 25 be fd ed 5b be ef 61 36 be e0 36 98 3e
       -0.16114953 -0.21477504 -0.17810796 0.29729366
0000c0 0c fa 86 3d 81 b7 ca 3c 9b 5a b7 3d 7d 52 66 bd
       0.065906614 0.024745705 0.089528285 -0.05623101
0000d0 89 6d 14 bd da 72 c7 3d 28 74 fc bd ea e7 bd be
       -0.036237273 0.09738703 -0.123268425 -0.37091
0000e0 29 89 9b be a9 cc 26 be 65 4e d3 be ad 71 1f bf
       -0.30378082 -0.16289009 -0.41270748 -0.6228283
0000f0 46 4a e3 3a e5 af 12 3f 9a 6a ba bd 61 19 41 bc
       0.0017340861 0.57299644 -0.09102364 -0.011785836
000100 aa 6e 0c bf cc 44 1c be 36 b7 0b 3e f0 2e 42 bc
       -0.5485636 -0.15260619 0.13644108 -0.011852011
000110 6e f6 30 3d f6 4d a2 bd 9b be 48 3e f1 f5 ce 3e
       0.043203764 -0.07925026 0.1960396 0.40422013
000120 1a f5 1f be b9 5c c3 bd 1b 08 9c 3e 66 23 9c 3c
       -0.15620843 -0.0953917 0.30474934 0.019059848
000130 a4 55 8c 3e e6 3c 46 be cf b9 9a 3e 67 4f 4b 3e
       0.2740909 -0.19359168 0.30219886 0.19854508
000140 fa 2f 9b 3d 18 c1 ac 3e 18 01 e9 3d a3 88 05 bd
       0.0757751 0.3374107 0.11377162 -0.03260101
000150 16 22 4d be 2e 31 d3 be c8 4d fa be 2e 3c 1b 3e
       -0.20032534 -0.4124846 -0.48887467 0.15159675
000160 e1 28 13 3e 36 4c 9b 3e 5a ab fd be f8 e9 64 be
       0.14371063 0.30331582 -0.49544793 -0.22354877
000170 30 d5 bf be 54 30 35 3f bc 97 47 3e b8 d6 a2 3e
       -0.37467337 0.7077687 0.19491476 0.31804442
000180 05 15 34 3d c4 6e 20 be 51 d4 b6 3d ae 0c af bd
       0.04396536 -0.15667254 0.08927215 -0.0854734
000190 44 78 1b 3e 3d 17 52 be 7b 0a c7 bd 48 61 0c bf
       0.15182596 -0.20516677 -0.09718796 -0.5483594
0001a0 5a a1 8d be 9d a5 ea bd 1e e1 4e bd 7a 66 85 3e
       -0.27662164 -0.114573695 -0.050507657 0.26054746
0001b0 0e fd ae bb 8c a3 75 bd 6e 15 61 3e 84 ba 3b be
       -0.005340225 -0.059970424 0.21980831 -0.18332869
0001c0 a3 3b 0d 3d df 50 b8 be 12 cd 95 bd c3 cb df 3e
       0.034480702 -0.359992 -0.07314505 0.43710145
0001d0 f0 7d a8 be 5d a8 84 be 1a 13 4b bc a3 d4 22 3f
       -0.32908583 -0.259097 -0.012394691 0.6360571
0001e0 90 a9 96 3d 76 4d a1 3e b8 d9 5a bd 1d 04 fd bc
       0.0735656 0.3150441 -0.05343029 -0.03088575
0001f0 cb 4b 7a 3d a4 4e 4d 3e 2f 73 bd 3d bf 34 ce bd
       0.061107438 0.2004953 0.09250485 -0.10068654
000200 a7 03 80 3e 59 7b 12 3f c8 b2 fd bd 3a 2f 58 3e
       0.25002787 0.57219464 -0.123876154 0.21111766
000210 65 07 15 3d 6f 93 79 bf dd 3f 16 be 46 84 97 bd
       0.036384005 -0.9749059 -0.146728 -0.07398276
000220 10 8e 7c 3e a9 fa f5 3d b7 cf 75 3d 75 90 03 3e
       0.24663568 0.120107 0.060012545 0.12848075
000230 73 15 e8 3d 39 34 9a bc 12 b2 cf 3e 92 ab 5b 3e
       0.11332216 -0.01882373 0.40565544 0.21452168
000240 90 31 15 3f 41 92 c7 bd 42 1e 18 be 8d 3b 38 3e
       0.5827875 -0.097446926 -0.14855292 0.17991467
000250 67 69 a7 3e 27 ad 2a 3e ef e2 6d 3e f1 d6 2f be
       0.32697603 0.16667615 0.232311 -0.17171837
000260 75 5f a3 3e c7 de cc 3b cf cd 2b be 2d f8 ce 3e
       0.31908765 0.006252143 -0.16777728 0.40423718
000270 70 b2 08 bf 2d 3e 04 be bc 6e bf be 7e 90 79 3c
       -0.53397274 -0.12914343 -0.3738917 0.0152322035
000280 b4 8f 72 3d 41 c7 95 3e 69 ba ac 3e dc aa 81 be
       0.059219077 0.2925358 0.3373597 -0.25325668
000290 e9 e9 38 3d d2 92 54 3d fa 37 bc bd 93 41 4b 3d
       0.04514495 0.05189783 -0.09190364 0.049623083
0002a0 0e ee 81 3b aa 72 1a 3c 09 d1 eb bd 44 de c8 be
       0.003965146 0.009426752 -0.1151448 -0.39232075
0002b0 e7 f2 c6 3e 68 6a 33 3e e0 7c 7f be 18 d2 e0 be
       0.38857195 0.1752106 -0.2494998 -0.4391029
0002c0 fa c3 27 bd 9a 1a 08 3e f4 74 89 3e 85 6b d3 3d
       -0.040958382 0.13291398 0.2684704 0.10323242
0002d0 30 55 63 be c8 fe 3d be 51 e2 b0 3d 1a 16 bd be
       -0.22200465 -0.18554223 0.086369164 -0.36930925
0002e0 f9 ec 9b 3d 77 1c 06 3e 66 15 a6 be 49 d7 5f 3e
       0.07613558 0.13096796 -0.324382 0.21859469
0002f0 f5 3e 03 bc 52 4b 0b bf 6f 36 c1 be ca ac 94 bd
       -0.008010616 -0.54411805 -0.37736842 -0.072595194
000300 21 de 29 3f 86 8c 73 bd 91 da a1 bd 2d 10 9a be
       0.66354567 -0.059460185 -0.07903016 -0.30090466
000310 04 0a 1d be 0f fd 3a bd 86 20 5f bd 96 bc 30 be
       -0.15335852 -0.04565149 -0.054474376 -0.1725944
000320 5b 44 08 be 66 9d 92 bd 89 54 58 be c8 df 07 be
       -0.13307326 -0.071589276 -0.21125998 -0.1326896
000330 7f 0b a0 be 28 a3 22 bd a4 73 e4 3e a8 6e 13 3e
       -0.3125877 -0.03970638 0.44619477 0.14397681
000340 18 98 42 3e 84 d9 af 3e ed fe df 3d 11 91 9e be
       0.19003332 0.3434564 0.10937295 -0.30970052
000350 91 25 a7 3c 1b aa 98 bd d1 65 7e be 7a 85 d2 bb
       0.020403655 -0.0745432 -0.24843527 -0.006424603
000360 95 fb 99 3e a2 62 07 be e5 41 a6 be 1b 85 90 be
       0.30074754 -0.13221219 -0.3247215 -0.2822655
000370 95 12 b0 3c b5 f6 0d bf c8 7d 23 3d ef 75 0f 3e
       0.021493236 -0.5545457 0.039914876 0.14009832
000380 82 92 e2 3d 04 5a 7b be 37 41 eb 3d 40 d4 27 be
       0.110631004 -0.24546057 0.11487048 -0.1638956
000390 9e 8d cd 3c d2 5e ba bd 86 e6 50 3e 00 e3 dc 3e
       0.025091942 -0.09100117 0.20400438 0.43141937
0003a0 ab 22 64 be c8 80 3c be a7 2f 50 bc 87 0c e8 be
       -0.2227885 -0.18408501 -0.012706674 -0.45322058
0003b0 98 64 48 bd fe ff 4f be 55 fc 1c bf 63 cc 3c be
       -0.04892406 -0.20312497 -0.6132253 -0.18437342
0003c0 5f 21 e8 3e 4f c9 a4 3e 48 e8 8a be 12 51 8d bd
       0.4533796 0.32184836 -0.27130342 -0.069002286
0003d0 e8 dd f8 3d f2 85 6d 3e b0 5a 7f be 37 cb 07 bd
       0.121517 0.23195627 -0.24936938 -0.033152785
0003e0 72 b3 38 3f 18 40 3d 3e 46 66 06 3f 99 9c 0a be
       0.7214881 0.18481481 0.52499807 -0.135363
0003f0 85 ce 4f 3d c4 6c 94 be 25 3e 4d bd 5c e9 d9 bd
       0.05073406 -0.28989232 -0.050108094 -0.10640213

fc1.bias f4 [256]
000000 f1 ec 0b be 0d be 75 bd 89 d9 53 3c 15 d2 5b bd
       -0.13664605 -0.0599957 0.012930282 -0.053667147
000010 c7 3a 05 be 2c 10 8a bd 4d c7 51 be 90 13 26 be
       -0.13010703 -0.06741366 -0.20486183 -0.162184
000020 c3 f9 1b be c8 bd ef bd 3b 9f 13 be db 9e 73 3d
       -0.15231995 -0.1170612 -0.1441621 0.05947767
000030 4c 3b 2e be 61 12 8e bc 35 03 1b be 08 04 a7 bd
       -0.17014807 -0.017342748 -0.15137942 -0.08155066
000040 43 7b b3 3c 98 4c 91 be a0 96 fc bd 88 b6 fc bc
       0.021909362 -0.2837875 -0.12333417 -0.030848756
000050 a4 5a 56 be b5 ab 95 be 2c 62 6d bd ee 9e cf bd
       -0.20933014 -0.29232565 -0.057954952 -0.10137735
000060 e7 f9 9a bc 2d 70 1a be 14 e5 7f 3d 97 53 a4 be
       -0.01891799 -0.15081854 0.062474325 -0.32095024
000070 91 2c f6 bd c6 00 88 be 41 00 2d be 49 2d 05 3c
       -0.12020219 -0.2656309 -0.16894628 0.008128473
000080 cb 77 e7 bd 8c 26 29 be 07 ba 07 3e 76 bd 09 3e
       -0.113021456 -0.1651861 0.13254558 0.1345118
000090 66 b5 05 bd 6c bf 10 3c d7 12 89 be ee 43 e5 3c
       -0.0326437 0.008834701 -0.26772186 0.027986493
0000a0 49 5c 0e be bc 00 9f be 3e b3 fb bd cf 05 ed bd
       -0.13902391 -0.31055248 -0.12290047 -0.115733735
0000b0 b8 8e 97 bd 29 5f 1e be 78 b6 2f be 04 ae 8b be
       -0.07400268 -0.15465988 -0.1715945 -0.272812
0000c0 0d 9e 87 3d 28 8e 20 bd 11 5c 6e 3d ac f1 30 3e
       0.06621943 -0.03919807 0.05819327 0.1727969
0000d0 c4 46 54 3e e0 0e 80 bc 02 1e 50 bc 44 87 dd 3d
       0.2073012 -0.015632093 -0.012702467 0.108168155
0000e0 35 e1 53 3d 79 d7 99 3c fb 82 27 3e 43 9e 51 be
       0.051728446 0.018779503 0.16358559 -0.20470528
0000f0 48 bd 43 bd 3c d1 1c bd 97 d0 b6 bc 1e 24 79 be
       -0.047787935 -0.03828548 -0.02231626 -0.24330184
000100 9a 61 12 be f5 4b 04 3d 7a db f0 bd 2d 4c 34 3e
       -0.14295045 0.032299 -0.11760612 0.17607184
000110 85 f3 fc bd 19 42 6d be d5 5d cd bd 6d 3e a8 bd
       -0.12351135 -0.23169746 -0.10027663 -0.08215032
000120 f9 47 64 be 69 d4 49 be 27 56 0d be f8 05 10 3c
       -0.2229308 -0.19709934 -0.13802396 0.008790486
000130 d2 8a 4a be 25 10 8e be 29 07 7e bd ec 3c 41 be
       -0.19779518 -0.27746692 -0.062018547 -0.18870896
000140 26 00 45 be be 31 77 be 6d 09 20 be 89 ef 99 bd
       -0.19238338 -0.24140069 -0.15628596 -0.07516391
000150 cc 5d 50 3d 64 50 8a bd 62 7e 95 bd 85 9f cd 39
       0.0508707 -0.067536145 -0.07299496 0.00039219498
000160 7b aa 68 bd 8a 49 9f be 3f d8 0f be 51 a8 4a be
       -0.056803208 -0.31110793 -0.14047335 -0.1979077
000170 c8 df 8a be a6 d4 5c be 78 af 23 3d b6 c4 e1 bd
       -0.27123857 -0.21565494 0.039962262 -0.11023848
000180 11 3e 7f be 5c 39 19 be 48 b7 69 be 99 4f 32 be
       -0.2492602 -0.14963287 -0.22823822 -0.17413177
000190 82 a8 ca 3d 95 65 14 bd 96 eb 9e 3d d2 78 93 bd
       0.098954216 -0.03622969 0.07759778 -0.07200779
0001a0 db 28 a5 bd 68 b0 d3 bd f0 e9 19 be 73 a3 71 be
       -0.08064433 -0.10336381 -0.15030646 -0.23597507
0001b0 d5 d6 bf bd 08 79 c8 bc 1b d9 3f be b7 e9 91 bc
       -0.09367148 -0.024471775 -0.18735163 -0.01781164
0001c0 b4 25 96 be 5f 64 c2 bd 8d 68 42 be 35 6f 5a bd
       -0.2932564 -0.094918005 -0.18985195 -0.05332871
0001d0 0a 92 de 3d 88 e8 a5 bd a2 bc 94 bc db 8f a3 be
       0.108676985 -0.081009924 -0.018156353 -0.3194569
0001e0 7e c2 c0 bd 52 e8 06 3b 9b 9c 85 bd 8b 67 cd 3c
       -0.094120964 0.002058525 -0.06524011 0.025073787
0001f0 3b e5 46 bd ef d2 5d be 9d 4a 34 be 7c 3b e5 bc
       -0.048558455 -0.21662496 -0.17606588 -0.027982466
000200 a9 af 6c be fe 14 8c 3d d3 ce 9b bd 28 b2 00 be
       -0.23113884 0.068399414 -0.07607808 -0.12567961
000210 dd d5 b9 be be d5 8b be 09 0d aa bd cc 65 ef 3a
       -0.36295977 -0.2731151 -0.083032675 0.0018264591
000220 60 69 58 be 8c b8 a1 bc 3b b4 f1 bd f8 17 34 bd
       -0.21133947 -0.01974132 -0.11801954 -0.04396817
000230 71 a6 6b bc e5 cc 96 bd 29 48 10 be 8a 3b d5 bc
       -0.014382944 -0.07363299 -0.14090027 -0.026029367
000240 9b 74 09 3e 46 7d 85 be 0a 09 71 bd c0 f4 ff b8
       0.13423388 -0.2607214 -0.05884651 -0.00012204936
000250 5f 17 93 be e0 ac 8e bd b7 c3 01 be cc 75 84 3d
       -0.28728768 -0.06966567 -0.12672316 0.064677805
000260 b3 ae 79 3d 84 29 c0 3d ce 44 c9 bd 02 ea 18 bd
       0.06095762 0.093829185 -0.098275766 -0.037332542
000270 55 a6 32 bd ea 22 19 3e ac b4 b6 3c f0 30 11 be
       -0.043615658 0.14954725 0.022302948 -0.14178824
000280 59 60 a1 be 92 92 89 be cf 03 c7 bd 8f 85 4c be
       -0.3151882 -0.26869637 -0.09717523 -0.19972824
000290 45 53 16 be 52 d9 6a 3d 76 0c 8d 3c 4b 60 92 3d
       -0.14680202 0.05733616 0.017217856 0.07147273
0002a0 9b 76 32 3d e4 a2 49 be d6 38 59 be 65 d6 5b be
       0.043570142 -0.19691044 -0.21213087 -0.21468504
0002b0 6e de 54 be e1 dc 83 bd 0d e9 b9 3d 5f 01 42 be
       -0.20787975 -0.06438614 0.09077654 -0.18945836
0002c0 85 87 16 be de c6 4c be 89 0a 40 be a1 14 3e 3d
       -0.14700134 -0.19997737 -0.18754019 0.046406392
0002d0 4d f0 85 bc 7c 93 79 bd fe 3f f2 bd d0 42 1c be
       -0.016349936 -0.060931668 -0.11828612 -0.15259862
0002e0 ad 98 9b bc 15 ee 52 be 85 45 0b 3e 5e db c4 bd
       -0.0189937 -0.20598634 0.13600738 -0.096121535
0002f0 b4 27 46 bb 53 22 8c bd 8a 00 4e 3e 90 16 96 be
       -0.0030236067 -0.06842484 0.20117393 -0.2931409
000300 01 f1 db bd d5 76 2f bc 98 fc 3d bd 6b 80 5b 3c
       -0.10739327 -0.010709484 -0.04638347 0.013397316
000310 9d b9 df bd b2 0b c8 bd 00 1a 86 be c9 82 d2 bd
       -0.10924075 -0.09767856 -0.2619171 -0.102788515
000320 db 6e e5 bd 16 4b 25 3d ff af b5 bd a8 0f e9 bd
       -0.11202785 0.04035481 -0.08871459 -0.11379939
000330 04 3a d8 3d e0 3b 2a 3b b1 b3 4e be 84 b1 35 bd
       0.105579406 0.002597563 -0.20185734 -0.044358745
000340 14 74 a1 3d 37 66 8c be af 34 bc bd 7a 4e fe bd
       0.07883468 -0.27421734 -0.09189736 -0.12417312
000350 dd a3 5c be 7c 42 69 3d e1 36 47 3d 09 1f 65 bd
       -0.21546884 0.05694817 0.04863632 -0.0559378
000360 c6 db 3f bd 63 f7 26 3c 74 48 d7 bd 01 d0 4b bd
       -0.04684045 0.0101908175 -0.10511866 -0.049758915
000370 5a 64 5f bd 90 1c 09 bd 70 74 c2 bd f3 da a8 bc
       -0.054539062 -0.033474505 -0.09494865 -0.020612216
000380 30 5c 13 be 77 cd b3 bd 03 78 7c be 9e eb c6 bd
       -0.14390635 -0.08779424 -0.24655156 -0.09712909
000390 98 3b 4e be 7f eb 4e 3e 5f 7e 20 3d 4d ab 0c bb
       -0.2013992 0.20207022 0.039183017 -0.0021464408
0003a0 28 8b 02 3e 5a 52 14 be 8a 36 52 be da 4d ed bd
       0.12748396 -0.1448454 -0.20528618 -0.11587115
0003b0 a0 2a 9d 3d 6b 91 e9 bd ef 15 46 bd 65 d8 7e bc
       0.07674146 -0.114046894 -0.04836076 -0.015554522
0003c0 ce b2 cc 3d 43 be 0a be 96 47 3c 3d ec 10 ec ba
       0.09995042 -0.13549142 0.045966707 -0.0018010414
0003d0 92 df 74 be 7d d7 8a ba ef b7 90 be 09 99 40 bd
       -0.2391341 -0.0010592785 -0.2826533 -0.047020946
0003e0 4d c5 71 3b a1 68 08 bd e0 c6 b3 be d2 e5 8d be
       0.0036891282 -0.033302907 -0.35112667 -0.277144
0003f0 9e 76 35 bd ab 97 9e bd 42 85 aa bd 06 8b 3f bc
       -0.044302575 -0.07743772 -0.08326198 -0.011690861

fc2.weight f4 [256, 256]
000000 6b b5 cd 3d 26 c6 2a be cc 44 0e be b7 3e 0c bd
       0.10044368 -0.1667715 -0.13893431 -0.034239497
000010 e6 67 c4 3d e0 4c 0b 3d 20 f2 77 bd 1b e3 67 3d
       0.095901296 0.03400886 -0.060533643 0.05661307
000020 fa 49 aa 3d 09 11 12 bd 97 14 69 3e d9 3e 9e be
       0.08314891 -0.035660777 0.2276176 -0.30907324
000030 f0 10 28 bd 62 4d 16 bd bb e4 80 3d 63 33 51 bd
       -0.041031778 -0.03669489 0.06293627 -0.051074397
000040 0f 5f 0c be bb a9 69 be 72 af 14 bd c3 3f 10 be
       -0.13708137 -0.22818653 -0.03630013 -0.14086823
000050 d1 ae f3 3d 7b 44 85 3e 0c 46 51 3e b7 ab fe 3d
       0.11898578 0.2602881 0.20436877 0.12435096
000060 9d 62 8c bd 81 ba 49 3e 55 89 2c 3e 93 15 98 bd
       -0.068547465 0.19700052 0.16849263 -0.0742599
000070 a8 b3 da 3c 27 1d 48 bd 5c da b8 3b a3 c8 6d be
       0.026696995 -0.048855927 0.005641265 -0.23221068
000080 13 b5 51 3e fc 70 3e 3e 29 13 93 3e 4c 6e 6c be
       0.2047923 0.18597788 0.28725556 -0.2308895
000090 27 dd 65 bc 8b 38 4c be 5a d3 5b bc 83 de 10 be
       -0.014029778 -0.19943444 -0.013417089 -0.14147381
0000a0 ef 1a 05 3d 93 28 35 3e 27 77 1d bd c8 07 56 3e
       0.03249639 0.17691259 -0.03844371 0.20901406
0000b0 cb 09 8c be 0e 1c 32 3d f7 68 63 3d 6e d4 d9 3d
       -0.2735122 0.043483786 0.055520024 0.10636221
0000c0 54 8e 42 bd f2 7a 23 be 23 1c e9 bd bb 3f bd bc
       -0.047499016 -0.15964869 -0.1138232 -0.023101678
0000d0 87 30 35 bd 79 c2 77 3e fc 8a e0 ba ff 0f 8e 3d
       -0.044235732 0.24195279 -0.0017131264 0.06936645
0000e0 e5 07 08 bd c5 0c 80 3d c3 be 34 be 16 71 07 3c
       -0.033210654 0.062524356 -0.17650895 0.008266708
0000f0 29 be 60 3e 70 78 7d be f0 a3 12 be e1 56 cd 3e
       0.2194754 -0.24752975 -0.1432035 0.40105346
000100 23 7e 89 be 2e 77 b2 bd 18 a7 e8 be b2 22 f9 bd
       -0.26854047 -0.08714138 -0.45439982 -0.12164821
000110 b8 64 ea 3d 0e 14 c8 bc 83 71 bd 3d 42 e5 46 be
       0.11444992 -0.024423625 0.09250166 -0.19423392
000120 68 de d3 bd a2 e6 e8 be 82 44 33 3e 7f 99 84 3e
       -0.10345155 -0.4548846 0.17506602 0.25898358
000130 9c a5 0c be 48 92 00 be 7a 20 5e be 77 a4 17 3e
       -0.1373505 -0.12555802 -0.21692076 0.14808832
000140 51 58 14 3e 62 8f e9 3d 6c 62 44 be 22 7e e1 3d
       0.14486815 0.11404301 -0.1917817 0.11010386
000150 ab dc 8d 3e 11 75 90 3c 51 93 33 be ef 57 be bc
       0.2770742 0.017633947 -0.17536665 -0.02323529
000160 0f 9a 8f 3e 0c 5c a6 3c 1c 52 df 3c b8 5e 7e 3d
       0.28047225 0.020307563 0.027260832 0.06210205
000170 6b 0b fe bc 15 67 ab 3e 3e bd 0b bc 9f 7a b8 be
       -0.031011304 0.33477083 -0.008529006 -0.36031052
000180 9e 7d 6b be 6f 9d 02 3e bb 21 9c be 8d d0 15 3e
       -0.22997138 0.12755369 -0.30494484 0.14630337
000190 4f 0f 47 be 4b 9e cb bd 4e 1e 08 3c 88 bd 39 be
       -0.19439434 -0.09942301 0.008308006 -0.18138707
0001a0 7d 10 32 3e 66 ec 27 bd 4d ac 6e be 8b 2b 01 3d
       0.17389102 -0.04099693 -0.23307915 0.031535666
0001b0 1e be b7 3d bc 13 e5 3c 44 c0 2d bd 33 25 73 be
       0.08971809 0.027963512 -0.042419687 -0.23744659
0001c0 10 40 81 3b e8 54 c3 bd 56 e4 5e be 50 23 17 3b
       0.0039444044 -0.09537679 -0.21766791 0.002306182
0001d0 4a 61 22 3e e7 28 09 be a6 10 aa 3d 36 e4 30 be
       0.15857425 -0.1339451 0.08303957 -0.17274556
0001e0 32 9f 55 be 6f 7f e7 bd 4f 5a 56 bd ce 23 55 3e
       -0.2086151 -0.11303603 -0.05233222 0.2081444
0001f0 f8 b7 b2 bd c9 bf ed 3d 2f c5 80 3e 9e fc 54 bd
       -0.087264955 0.11608846 0.2515044 -0.051998727
000200 1a ab 29 be 0a 31 8e be 30 31 9e bd 8d c3 ff 3e
       -0.16569176 -0.2777179 -0.077242255 0.4995388
000210 54 cb a3 3c 45 fb cf 3d 64 1e 0d be 8c aa 97 bd
       0.019994415 0.10155348 -0.13781124 -0.07405576
000220 4d 9e d6 bd 5a 01 cd 3c 8f b8 29 be 06 ed 9c 3d
       -0.10479412 0.025025059 -0.1657431 0.07662396
000230 ab 73 6e 3e 2f a5 f8 bd 5f d0 96 bd 3a 39 d7 3d
       0.23286311 -0.12140881 -0.073639624 0.10508962
000240 c1 23 b5 bd d0 7b 31 bd 63 43 94 bd cf ad 8f bd
       -0.0884471 -0.043330967 -0.072394155 -0.07015573
000250 f0 8b f7 3d 68 71 a4 3e 12 cc 6a 3e c4 98 06 3d
       0.12087238 0.32117772 0.22929409 0.032860532
000260 a9 7c 03 be cd e8 99 be d1 a1 db bd 16 a4 ae bc
       -0.12840523 -0.30060425 -0.107242234 -0.021318477
000270 c6 af de bd df 35 f0 3e e7 c4 99 3a 92 10 95 3e
       -0.1087337 0.469161 0.0011731655 0.29114205
000280 05 a2 95 3e 4a 7d dd bd 00 e8 1d be 93 c9 77 be
       0.29225174 -0.108149126 -0.15420532 -0.24197988
000290 0a a6 77 3c 74 d8 9d 3e 7e 7c af bd 05 f7 bc 3d
       0.01511527 0.30829203 -0.08568667 0.09226803
0002a0 bd 6f 1b 3c 47 b1 68 3e 6f f6 65 3d 5e c7 02 3e
       0.00948709 0.22723876 0.05614322 0.12771365
0002b0 64 f1 54 3d 5d 00 94 bd 4b 5c ff 3c 23 ba 22 3e
       0.05198802 -0.07226632 0.031171938 0.15891318
0002c0 aa c4 2d 3e b5 c5 ff bb fa 8a 54 3d 0e 9c 80 bc
       0.16969553 -0.007805551 0.05189035 -0.015699413
0002d0 67 25 f7 3c 8b c4 4d 3e 3c 82 17 3c 54 af 1c be
       0.030169202 0.20094506 0.009247359 -0.15301257
0002e0 8a 6e a7 3d 55 ae 11 bf 48 86 59 bd b4 26 0e bc
       0.081753805 -0.56906635 -0.053106576 -0.00867622
0002f0 61 f4 5a 3e 83 53 c1 bd 70 fd 34 be ce ca 23 bf
       0.21382286 -0.09439757 -0.17674804 -0.6398133
000300 4d 48 ba 3e 1d 80 33 3e 22 e1 11 3e 4b 9f 88 be
       0.36383286 0.1752934 0.14246038 -0.2668403
000310 ce 9f 7d 3d 7a 8e 05 bd 52 8b 5e bc 31 4c ee 3d
       0.06191998 -0.03260658 -0.013583021 0.11635626
000320 8d 70 eb 3e ce 27 6f be 8e 5a 0b 3e 47 ea 3a be
       0.45984307 -0.23355028 0.13608763 -0.18253432
000330 00 d0 ea 3e 42 db a6 bd 5d fb 40 bc d3 c5 2b 3c
       0.45861816 -0.08147289 -0.01177868 0.010484177
000340 3e 1d 46 3e 4b 18 a6 be 99 0a 32 bd 95 28 a2 3d
       0.19347093 -0.3244041 -0.043467138 0.07917897
000350 d6 9d f9 bd c2 3f 01 3d b9 ec 4a 3e ce a7 ce be
       -0.12188308 0.031554945 0.19816865 -0.403624
000360 11 88 c6 3d 1d c7 04 3c c3 e2 5b 3d c9 39 c4 3b
       0.09693921 0.008104113 0.053683054 0.005988334
000370 be 43 f0 3b 9d bc 11 be 52 77 d1 3d 18 58 12 bd
       0.0073322942 -0.14232107 0.10227837 -0.035728544
000380 4b 01 83 bd d6 51 25 3e 24 ae 04 3e 9a f3 9a 3e
       -0.06396731 0.16144499 0.12957054 0.30263978
000390 c6 aa 73 be 6a ff 94 3e ed 73 67 be 5b 14 28 3e
       -0.23795614 0.29101115 -0.22602816 0.16414015
0003a0 63 ec 25 bf 51 76 3d 3e a7 e4 6c bc 21 10 67 3e
       -0.6481382 0.18502165 -0.014458812 0.22564746
0003b0 b5 02 3e 3d 9f 0d 62 bd 47 54 00 3f 23 4c 34 3e
       0.0463893 -0.05518877 0.501286 0.17607169
0003c0 97 d0 ef 3d c8 a2 f3 be 20 c1 01 3e d1 3c 6e be
       0.11709707 -0.4758513 0.12671328 -0.23265387
0003d0 a8 5d 94 3e 56 20 22 3e 3d 66 ab bd a6 b2 e2 bc
       0.28977704 0.15832648 -0.0836911 -0.027673077
0003e0 00 98 28 3e 16 8f 73 be 8e 39 9e bd df f1 8c 3d
       0.16464233 -0.23785052 -0.077258214 0.06882071
0003f0 e0 5a a1 be 33 87 d7 bd 61 f7 16 be 07 2e 1f be
       -0.31514645 -0.10523834 -0.14742805 -0.15544902

fc2.bias f4 [256]
000000 f1 d9 91 3d a6 fc d8 bd 9a da 27 be 26 ea ff bc
       0.07121647 -0.10595064 -0.16391984 -0.03123958
000010 c7 e1 6b 3d 27 b6 86 3e a5 5d 6a 3e a8 df fb bd
       0.057588365 0.26310846 0.22887285 -0.122985184
000020 51 b5 61 be 6c e8 81 bd c3 e2 9f bd 0a cc 6d bd
       -0.22041823 -0.06343159 -0.07806923 -0.058055915
000030 ed 3e a9 be 8b c9 be bd 2c d2 ae bd 51 00 da 3c
       -0.3305582 -0.09315785 -0.08536181 0.026611479
000040 ef 44 67 3c c4 a3 f7 bd 72 d9 48 be 58 94 3b bd
       0.014115556 -0.12091783 -0.19614199 -0.04579577
000050 60 9e ea bc ce d3 4e bd 19 e4 07 3e cc d7 11 bd
       -0.028639972 -0.05049496 0.13270606 -0.03560619
000060 39 50 9f bd 07 0a f8 3c 81 71 04 be 02 7e ab bd
       -0.07778973 0.030278219 -0.12933923 -0.083736435
000070 ce 77 c0 3d 55 07 8c 3e d4 fd 98 3d 51 d9 7a bc
       0.09397851 0.27349344 0.07470289 -0.015310601
000080 91 59 3f 3e 5a 69 94 3d c6 69 00 3e 05 5c 99 bd
       0.1868651 0.07246657 0.1254035 -0.074882545
000090 24 5a 27 3d 0d 80 0d be ae 2a 2c be 48 c3 a6 bc
       0.04085745 -0.13818379 -0.16813156 -0.02035679
0000a0 db 17 56 bd ae 57 fc bd 12 1e 8b bd 18 a3 03 3d
       -0.052268844 -0.12321411 -0.06792845 0.03213796
0000b0 b3 b6 cd 3d ca 76 49 be 82 9a 95 be 59 f3 86 bd
       0.10044613 -0.1967422 -0.29219443 -0.06589384
0000c0 bf 88 8f bd 1f 9b a5 bb 7b 98 1f be 56 65 1b bd
       -0.07008504 -0.0050538923 -0.1558551 -0.03793844
0000d0 dc 9a 54 3e 19 be d1 be ac f7 a3 bd c2 66 df bd
       0.20762199 -0.40965346 -0.08006224 -0.10908271
0000e0 e6 e6 db bd 91 00 0f be 99 01 ce bd f9 76 4a be
       -0.107374 -0.1396506 -0.100588985 -0.19771947
0000f0 91 5d d2 bd ce 73 99 bd ca 86 f3 bd 4e 21 b4 3b
       -0.102717526 -0.07492791 -0.11890943 0.0054971343
000100 66 59 0a be 3e 29 a5 bc c1 79 21 bd b3 a9 e2 3c
       -0.13510665 -0.020161267 -0.039422754 0.02766881
000110 b9 c8 0c be d5 a9 b1 3d ea 44 3b 3e c1 11 0d bd
       -0.13748445 0.08674971 0.18288007 -0.03444076
000120 cd 38 cd bd 3c 6f d3 bb e5 0a 39 3e d0 c4 aa bd
       -0.100205995 -0.006452469 0.18070562 -0.0833832
000130 db 22 10 be 0c bb 05 bd 2f df 19 bd 8a 2a 38 3c
       -0.14075796 -0.032649085 -0.03756636 0.011240611
000140 d7 4e 7a be d7 de 2a 3c 12 ef c3 3c 39 f1 be bd
       -0.24444138 0.010429106 0.023917709 -0.09323353
000150 82 fc 3c be 80 6e bc bb 6e a7 a2 bc 21 89 55 be
       -0.18455699 -0.0057504773 -0.019855227 -0.20853092
000160 8f e3 3a 3e a2 03 a6 3d 84 6b e8 bd ab df 4f bc
       0.18250869 0.08106162 -0.11348632 -0.012687604
000170 a6 76 16 be 30 fb 9d bd fa 35 eb 3c a1 ea 3c 3e
       -0.14693698 -0.07713926 0.028712261 0.18448879
000180 b0 0a ac bd b5 09 4a be 28 d0 fc bd 67 87 ff bc
       -0.08400476 -0.19730265 -0.1234439 -0.031192495
000190 f0 a0 92 3c cd 2f fc bd 5b be a8 3d d4 40 ae 3d
       0.017899007 -0.12313805 0.082394324 0.08508459
0001a0 48 fa 90 be 39 e2 83 be 38 f8 77 bd 47 56 bb 3d
       -0.2831595 -0.25758532 -0.060539454 0.091473155
0001b0 6d ef 91 be ae ad d6 bd fb 4e 49 3d 27 74 0c be
       -0.2850298 -0.104823455 0.049147587 -0.13716184
0001c0 26 67 d6 3c b6 71 91 3e 85 71 3d be 2c 35 0b bd
       0.026172232 0.28407067 -0.18500336 -0.033986256
0001d0 51 ea b3 be ea 94 36 3e 7e 81 d2 bd 27 84 ec be
       -0.35139707 0.17830244 -0.10278605 -0.46194574
0001e0 45 22 d3 3c 98 cf 89 3c 38 5b 7a bd 0a 2f af 3e
       0.025773177 0.016822621 -0.06112215 0.34215575
0001f0 61 e4 31 3d e0 d5 2b bd 22 9f 1c be a1 d4 06 be
       0.04343069 -0.041952014 -0.1529508 -0.13167049
000200 f9 f6 0b be 74 b3 a1 be 25 80 cf 3b 94 6d 4d bd
       -0.13668431 -0.31582224 0.0063324147 -0.05015333
000210 76 4d 8b bd a9 02 d5 bd 7a 51 99 bc 6c 2a 26 be
       -0.06801884 -0.10400898 -0.018715609 -0.1622712
000220 d7 12 50 3d 2b 2b ae bd 0e 8c b7 3e 57 11 a7 bd
       0.050799217 -0.085043274 0.3584904 -0.08157604
000230 fc 73 8d 3d b3 09 11 3e d9 17 eb bd c7 41 19 be
       0.06906888 0.14163856 -0.11479158 -0.14966498
000240 fd 0a fe bc 9a 7e 0a be 95 40 fd bc 2a d3 50 be
       -0.031011099 -0.13524857 -0.030914584 -0.20393053
000250 fb 2c 1f be a5 ea df bd 46 c2 80 3d f6 b5 ed bd
       -0.15544502 -0.10933427 0.06287055 -0.11606972
000260 1a 69 4c be 66 80 93 3d c8 df c1 3c d7 46 41 bd
       -0.19961968 0.072022244 0.023666278 -0.0471867
000270 1b ae 3a be ae 09 30 be 4d a5 f7 3c 04 a6 03 be
       -0.18230478 -0.17191193 0.030230189 -0.12856299
000280 39 af 1c be 2f a0 e8 3c a4 0c f5 3c b5 50 6e bc
       -0.15301217 0.028396694 0.029913254 -0.014545609
000290 24 c8 f3 bc 04 da e0 3c c7 bd 31 bd 32 e9 a2 bd
       -0.02975852 0.027447708 -0.043393876 -0.07954635
0002a0 a9 0b 18 bc 34 24 24 3d 88 93 9e 3c 76 83 90 3c
       -0.009280124 0.04007359 0.019357458 0.01764081
0002b0 02 72 8e 3e 1e 15 76 bd ed 6b a6 3d 95 35 b1 3e
       0.27821356 -0.060078733 0.08126054 0.34611192
0002c0 2d b7 23 be 35 30 b8 bd 81 8d 8e bd 35 5e a2 bd
       -0.15987845 -0.0899357 -0.069605835 -0.07928125
0002d0 6f 2c d3 bd 70 a7 5c 3e 6e 40 1a bd d0 14 ca bc
       -0.103112094 0.21548247 -0.0376591 -0.024668127
0002e0 3d dd 0a be ad 54 b8 bd 04 39 f1 bd 06 e6 8f bc
       -0.13560958 -0.090005256 -0.11778453 -0.017565738
0002f0 01 11 86 bc db 6c aa bd bb 66 25 bd f7 84 b2 bd
       -0.01636553 -0.08321544 -0.040381175 -0.08716767
000300 8c b9 b9 3c 34 b0 01 3c 3a 00 8d 3d 55 ab 42 be
       0.022671483 0.007915545 0.06884809 -0.1901067
000310 a4 7f b7 bd 8e 58 21 3c 43 5b 2d bd df 4a 57 bd
       -0.089598924 0.009847773 -0.042323362 -0.052561637
000320 1e 69 a5 bd 07 37 a3 bd 41 9c 16 3e a7 78 08 3e
       -0.0807669 -0.0796948 0.14708044 0.13327275
000330 c6 a0 cd 3e ea 13 d7 bd d5 0d c7 bd e1 fe 28 be
       0.40161723 -0.10501845 -0.09719435 -0.16503479
000340 7e 30 1f 3e 87 5b 88 3e 4f bf ff 3d ca a6 cb bd
       0.15545842 0.2663233 0.12487661 -0.09943922
000350 54 4d 29 be aa 5d 53 bd 8a a0 60 bc cd 9b 03 be
       -0.16533405 -0.051602997 -0.0137101505 -0.12852402
000360 24 2a ff bd a3 d1 34 be 47 bb 58 bc f1 f0 f7 3d
       -0.124592096 -0.17658095 -0.013228244 0.12106503
000370 7c e3 14 be 58 b1 36 bd b9 f1 d8 be ed d0 21 3c
       -0.14539903 -0.044602722 -0.4237192 0.009876472
000380 1d 74 53 bd 02 6b 2a bd 6a 71 d6 bd bf c6 5c be
       -0.051624406 -0.041605957 -0.10470851 -0.2156019
000390 15 fa 9e 3e c5 fb de bc ea 4c f5 3d ec b7 76 bc
       0.31050172 -0.027219662 0.11977561 -0.015058499
0003a0 9f fb 00 3e 14 a5 9b 3c 17 e8 e7 3b d8 41 27 be
       0.12595986 0.018999614 0.007077228 -0.16333711
0003b0 ec bb b0 bd 30 d6 94 bc d7 7d f8 3c b9 82 2c bd
       -0.08629593 -0.018168539 0.030333443 -0.042116854
0003c0 eb c3 90 be f4 e4 80 bd 8b ea 4a be 8d bd ea bd
       -0.28274474 -0.06293669 -0.19816034 -0.11461935
0003d0 e0 f2 ce bc 76 04 95 3d 88 8f 8b bd 5e b0 95 3e
       -0.025262296 0.072762415 -0.06814486 0.2923612
0003e0 45 45 7a bd 8c f4 89 bc b6 d2 1b be 38 c7 26 3d
       -0.061101217 -0.016840242 -0.15217099 0.040717334
0003f0 fe ff 90 be ce 7e 13 3e 4d f7 44 bd 39 37 e7 bd
       -0.28320307 0.14403841 -0.048087407 -0.1128983

fc3.weight f4 [256, 256]
000000 19 91 49 be 37 89 92 be 97 a3 05 3e bc d2 41 be
       -0.19684257 -0.28620312 0.13050686 -0.18928045
000010 45 e0 a6 bc 38 2f f5 3c 5f 51 91 be ff 39 97 be
       -0.020370612 0.029929742 -0.28382394 -0.29536435
000020 49 1a ab 3d 89 b5 45 3d 28 0a 3f be 78 7c c9 be
       0.08354623 0.04826883 -0.18656218 -0.39352775
000030 6a 23 a0 3d b3 cf a5 bd 45 75 c2 3d c5 3b b1 3d
       0.07819255 -0.08096256 0.09495024 0.08653978
000040 bd 45 0e 39 23 81 1f 3f fb ee 49 be 67 c0 57 3d
       0.00013568155 0.6230642 -0.1972007 0.052673724
000050 ce c0 13 be 17 aa 15 bd 17 33 cb 3d 8a 02 f7 bc
       -0.14429018 -0.036539163 0.09921854 -0.030152578
000060 eb fb 1c bd 12 78 97 3d b2 42 1f 3e c6 9d 39 bd
       -0.038326185 0.073959485 0.15552786 -0.04531648
000070 fd 5e eb 3d c9 42 b2 bd 46 e4 49 3b f3 1b 31 3e
       0.11492727 -0.087041445 0.0030806228 0.17295818
000080 c7 31 45 be e5 81 23 bd cf 75 8f be 71 86 2c bb
       -0.1925727 -0.0399188 -0.28019568 -0.002632525
000090 c7 8e 09 3e 96 60 91 be 2c 68 94 3d f0 09 15 be
       0.13433371 -0.28394002 0.07246432 -0.14554572
0000a0 7c 1c 98 3e ff 3b 8b 3d be 1a 47 bd d8 81 3b 3e
       0.29709232 0.06798553 -0.048609488 0.1831125
0000b0 94 ab c9 be 1e 82 d8 3d 6e bf 12 3e f2 e5 17 be
       -0.39388716 0.10571693 0.14330837 -0.14833811
0000c0 1e 16 a2 bd 6b 67 f4 3d 8a 8f 4a 3e 05 8a 5b bd
       -0.07914375 0.11933788 0.19781318 -0.053598423
0000d0 a6 f5 66 3c 27 56 21 bd 21 0d f3 be c7 e6 f0 bd
       0.014096653 -0.039388802 -0.47470954 -0.11762767
0000e0 58 4b ef 3c c1 e7 4d 3e ef 36 86 3d 24 53 d1 3c
       0.029210731 0.20107938 0.065534465 0.02555234
0000f0 48 84 19 3e a2 80 2e bf ee 82 9f 3c bd 81 f8 be
       0.14991868 -0.6816503 0.019471612 -0.48536482
000100 85 ff 54 bd 6c aa 66 3d 93 00 36 be ab 84 4a be
       -0.052001495 0.05631487 -0.17773657 -0.19777171
000110 c7 35 b2 bc 7a 27 ed 3e 09 b6 0d be 3e 3b c4 be
       -0.021754159 0.4631918 -0.13838972 -0.38326448
000120 f2 98 15 be d3 2d ed 3c 9b df f7 3d 26 47 a9 3e
       -0.14609125 0.028952515 0.12103196 0.33062094
000130 7d e3 53 be 61 c5 1e bf 56 ee 76 3e f9 b5 a2 be
       -0.20692249 -0.62019926 0.24114355 -0.3177946
000140 81 83 e8 3e 18 3a 11 bc 85 41 d3 bd fa 85 52 3c
       0.4541283 -0.008863948 -0.10315231 0.012849325
000150 53 9d 9f be 39 39 09 3f d9 c0 94 3e d2 a9 79 be
       -0.31174716 0.5360294 0.2905338 -0.24381188
000160 4f c9 0d be 80 fa ab 3c a7 7f 8c be 0b 90 03 3e
       -0.13846324 0.020993471 -0.2744114 0.12847917
000170 e7 7f 8d bd 9a a7 7c 3c 40 9c a5 bd a9 53 8d 3e
       -0.06909161 0.015420819 -0.08086443 0.2760289
000180 97 a1 70 be 49 79 12 bd 51 20 18 3e 2b 89 3c 3d
       -0.23499142 -0.035760198 0.14856078 0.04602925
000190 5b 86 dc 3c d4 37 84 be 7a 14 2a 3d 37 a0 5a be
       0.026919534 -0.25823843 0.041523434 -0.2135018
0001a0 09 3c 7e be be 0f 41 be 4e c7 87 3e 1f 2f 7a be
       -0.24827589 -0.18853661 0.26519245 -0.24432038
0001b0 3f 7e c0 3e 0e bb 12 3e 2d c5 f4 3b 36 b1 76 3d
       0.37596318 0.14329168 0.0074697942 0.060227595
0001c0 8c 4b 13 be 8a 54 95 be 1e b5 0f be 95 47 1e bf
       -0.14384288 -0.2916606 -0.14033934 -0.61827976
0001d0 0c 7c f6 3c e1 70 8c 3d ff d4 2f bd 42 c2 e6 bd
       0.030088447 0.068574674 -0.04292774 -0.112675205
0001e0 dd a8 26 3d 09 01 54 3e b0 35 c9 3e 25 03 46 3c
       0.040688384 0.2070352 0.39298773 0.012085711
0001f0 d7 58 45 bc 8b 38 92 3d 5d 6c 66 3d 94 32 08 3d
       -0.012045107 0.07139691 0.056255687 0.03325136
000200 8b c8 dc bd b1 2e 15 3d 45 42 1a be 78 ea 22 be
       -0.10780438 0.03642148 -0.15064342 -0.15909755
000210 e9 bc bf be a8 e8 06 3e 12 89 ca 3d da db 31 3e
       -0.37448815 0.13174689 0.09889425 0.17369023
000220 44 40 96 3e 06 be 6f bd db 02 be 3e cc 0d 08 3d
       0.29345906 -0.05853083 0.37111554 0.033216283
000230 6b ce 12 3e fe 23 a1 bd a5 0b 07 be 1d 31 e6 3e
       0.14336555 -0.07868193 -0.13188036 0.44959345
000240 e4 34 ae 3d 46 ec a3 bd d1 ea 1e be b8 18 5f be
       0.08506182 -0.0800405 -0.15519263 -0.21786773
000250 1c 5a 42 be 7a fc 9c 3d 80 22 3f be 25 9e ad bd
       -0.18979686 0.076653436 -0.18665504 -0.08477429
000260 f9 8b 20 3e 28 e3 9c bd f7 6a 87 be 4c 6b a2 3c
       0.15678395 -0.07660514 -0.26448795 0.019826554
000270 28 a9 8a 3d fa 53 5d be 80 20 0f 3e 16 04 28 3c
       0.06770545 -0.21614066 0.13977242 0.01025488
000280 92 0f 87 bd 5c 3c 0c bd 8c 3d e7 be 2f 2f 89 3e
       -0.06594767 -0.03423725 -0.45164144 0.2679381
000290 1e 0c 3f 3d e0 08 87 3e b9 3e 99 3d 36 74 79 3d
       0.046642415 0.2637396 0.074826665 0.060901843
0002a0 5a 0e 5a bc 1b a9 6f bd da 89 17 be af 0a e8 bd
       -0.013309086 -0.05851088 -0.1479868 -0.11330163
0002b0 46 90 88 be a5 00 2e 3c c9 92 48 ba f6 c1 00 bf
       -0.26672572 0.010620271 -0.0007651267 -0.5029596
0002c0 71 5e ee 3c f3 38 31 3e bf d2 4c 3d 19 9b 0c 3b
       0.029097768 0.1730688 0.05000567 0.002145475
0002d0 17 0a eb 3e f9 95 ae bd de 42 4c 3e b1 cf 9c b9
       0.45906135 -0.08524699 0.19947383 -0.0002990938
0002e0 28 01 f3 3d eb 16 56 3e 65 72 04 3e 69 29 d6 be
       0.11865455 0.2090718 0.12934263 -0.41828468
0002f0 78 b5 84 bd 36 b0 11 3e 63 44 e3 3d 0c 17 88 3d
       -0.06479925 0.14227375 0.11097028 0.06645021
000300 24 f5 56 3d b8 5b de bd 61 9d 30 3e 44 1c f7 3d
       0.052479878 -0.10857338 0.17247535 0.12065938
000310 4d db d8 3c 66 7d fe bd 4f 93 a9 be 13 84 74 be
       0.026471758 -0.124262616 -0.331202 -0.23878507
000320 6b 42 9a 3d 5c 55 ba bc e4 ad 2c 3c 71 2f a6 3e
       0.075321995 -0.02274578 0.010539506 0.3245807
000330 5e 62 1b 3e 3f 13 3e 3e cf bb 84 bd 65 ed cc bd
       0.15174243 0.1856203 -0.06481134 -0.10006217
000340 e9 83 8f be 5a 64 9e 3d f7 b7 e4 3d d9 4a 93 be
       -0.28030327 0.07733984 0.11167901 -0.28768042
000350 d7 e7 b1 be f9 86 17 be 59 da a1 bc ad e2 ee 3d
       -0.34747192 -0.14797582 -0.019757437 0.11664329
000360 3d 8a 51 bd fb 38 70 3e ff 57 26 3d 94 93 d5 bd
       -0.051157225 0.23459236 0.040611263 -0.10428539
000370 14 b2 cd bd f7 8b 0f 3d af a2 7a bd f8 7c fd bb
       -0.10043731 0.03504559 -0.061190303 -0.0077358447
000380 a3 89 1e 3e e5 63 5f 3d 25 ae 09 bd d8 e1 b3 3e
       0.15482192 0.054538626 -0.033613343 0.35133243
000390 b9 a5 8d 3d c8 dc ca 3b 65 ac 17 bd a3 28 25 be
       0.06916375 0.00619087 -0.037029643 -0.16128783
0003a0 36 0e 1f 3e eb d3 3e 3d 8d 77 d2 bd d5 3c 45 3c
       0.15532765 0.04658882 -0.10276709 0.012038429
0003b0 b9 38 46 be 33 3a 66 be 50 f2 63 bc b0 36 4e 3e
       -0.19357575 -0.22483139 -0.013912752 0.20138049
0003c0 65 c2 05 be 4b 11 df be c7 92 0c bd 90 a3 b0 3b
       -0.13062437 -0.4356788 -0.034319665 0.005390592
0003d0 ad b6 8d 3e 3c df 1b 3d 27 d9 85 3d 86 17 67 3d
       0.27678433 0.03805469 0.06535559 0.056418918
0003e0 75 13 12 bd 47 46 01 bf 9b 36 1a 3c 0e f6 9f 3d
       -0.035663087 -0.5049786 0.009412433 0.07810603
0003f0 c5 4b 15 3f e0 73 60 be 95 02 58 be b5 9b ef 3c
       0.5831874 -0.21919203 -0.21094735 0.029249052

fc3.bias f4 [256]
000000 79 f1 a5 bd bd 5e a7 3d eb 00 c3 3d ae 7b 56 3d
       -0.08102698 0.08172367 0.095216595 0.052364044
000010 50 54 9d bd f6 24 a3 bd 48 94 51 be 38 7a 30 be
       -0.07682097 -0.07966034 -0.20466721 -0.17234123
000020 ee 0b 92 3d ec 18 a9 3e b3 f7 46 be 44 e3 bc bc
       0.07131182 0.33026826 -0.19430427 -0.023057587
000030 4e c8 6e bd 8f 52 c1 bd ab 28 27 3e 87 05 10 3d
       -0.058296494 -0.09439575 0.16324107 0.03516152
000040 c6 66 4d bd f9 bd 7f 3e 89 b6 52 3e 12 16 f3 bc
       -0.05014684 0.24974813 0.20577444 -0.02967361
000050 e4 58 4b 3e 4d 78 11 be ed 09 16 3e 3d a2 20 3e
       0.19858128 -0.14206047 0.14652224 0.15686889
000060 56 fb 0d 3e 2f 9f 8b 3e 66 70 06 3e 90 22 82 3c
       0.13865408 0.27269885 0.13128814 0.015885621
000070 e1 bf 14 3e 1d 59 20 3e 4d bd d2 39 4f 13 0b be
       0.14526321 0.15658994 0.0004019536 -0.13581584
000080 6a d9 c5 bd b5 6b a0 bc fe 02 a0 bc 7c 3f d6 bd
       -0.09660609 -0.019582609 -0.019532677 -0.104613274
000090 38 3d 76 3d 6f aa 17 be 89 62 a1 bd 7d 3e a9 3d
       0.060116976 -0.14811109 -0.07880122 0.08263872
0000a0 20 f7 a2 bd 1f 97 ee 3c e2 9f 99 bd 5c e7 82 3e
       -0.079572916 0.029124795 -0.07501198 0.25567138
0000b0 a0 ff 22 be bd 46 82 bd 03 c4 8b 3c 28 f1 d7 bd
       -0.15917826 -0.063611485 0.01706124 -0.10544044
0000c0 86 42 05 bd d0 f8 a2 bd c7 df 4f bd d9 34 0f 3e
       -0.032534145 -0.079576135 -0.05075052 0.13985004
0000d0 c3 e6 fb bc ca 4d 72 bd 70 a0 21 be c2 c2 a5 3d
       -0.030749684 -0.059156217 -0.15783858 0.08093788
0000e0 81 3b 3a be 8a 9a f7 bc ce 96 1f be 7d e8 39 3e
       -0.18186761 -0.030225057 -0.15584871 0.18155093
0000f0 a0 57 3e be 2c c2 04 be 15 92 56 3e 79 ea 20 3e
       -0.18588114 -0.12964696 0.20954163 0.15714444
000100 9a 8d 3e be 3f 33 78 bd 87 b4 b5 3c 3b 41 c7 bd
       -0.18608704 -0.060595747 0.022180809 -0.097292386
000110 6f 0e 2b 3e 38 4a 84 bd 67 f5 ba 3e ec fa 9d bd
       0.16704725 -0.064594686 0.36515352 -0.07713875
000120 c7 2b a0 3e a4 69 73 bd c4 11 4b bb d9 aa 19 bd
       0.312834 -0.05942692 -0.003098593 -0.03751645
000130 da 8d 8b 3c 76 e5 76 3b 34 48 61 bd f3 da f8 bd
       0.017035414 0.003767339 -0.0550005 -0.12151136
000140 37 f4 12 3d 04 8a 0c 3e 75 53 85 bd ba f0 72 bc
       0.035877433 0.13724524 -0.06510059 -0.0148279015
000150 68 63 b4 3d dc 79 ec bc ee 05 63 3d 4a 93 1b 3e
       0.08808023 -0.0288667 0.055425577 0.15192905
000160 89 97 24 bd 32 9a 85 3e 54 4a a2 bc 88 f9 47 be
       -0.040183578 0.26094204 -0.019810833 -0.19528782
000170 59 8c 0b bd 25 31 0e be e0 80 ab 3d aa 8a b8 bd
       -0.034069393 -0.13885935 0.0837419 -0.09010823
000180 0f e5 40 be 6f 1c a3 3d 14 f8 80 be df 10 94 3b
       -0.18837379 0.07964408 -0.2518927 0.0045186128
000190 ac b1 1f be 85 5b 8a bc 20 2c 14 3c 2c 23 95 3d
       -0.1559512 -0.016889343 0.009043723 0.07282099
0001a0 91 50 75 be a4 f3 32 bc cb a5 b2 bd 99 e6 95 bd
       -0.23956515 -0.010922346 -0.08723029 -0.07319374
0001b0 d8 bd d3 bd 7f 9d a6 3d fb 74 09 3e 6f 12 01 3d
       -0.10338944 0.08135509 0.13423531 0.03151172
0001c0 78 b7 33 be 1c d6 76 3e bd 74 79 bd fb 78 01 be
       -0.17550457 0.24105114 -0.060902346 -0.12643807
0001d0 be 66 e7 bd 52 7c 4d be db b8 c5 3d d6 10 e0 bd
       -0.112988934 -0.20066956 0.09654399 -0.10940711
0001e0 69 12 a9 bd 63 b7 9b bd 91 76 34 be a6 79 14 3e
       -0.082554646 -0.076033376 -0.17623354 0.1449953
0001f0 86 8b 07 3e f8 f0 ca bd 2f 63 a0 bd 74 f3 c0 3d
       0.13236818 -0.099092424 -0.07831418 0.09421435
000200 db 06 e9 bd 82 e6 11 3b a8 16 ed bd b2 35 66 3e
       -0.11378261 0.0022262638 -0.11576587 0.2248142
000210 e8 7e 49 bd 44 8e 46 bc 02 e8 df b9 4b a6 e9 3d
       -0.049193293 -0.01211888 -0.00042706734 0.11408671
000220 ea a8 98 bd f2 88 22 be 0e 3d b6 bd f9 d9 d5 bd
       -0.07454093 -0.15872553 -0.08898364 -0.104419656
000230 76 d8 24 3d c6 42 6a 3e 19 15 0d be 7d 0f e3 bc
       0.040245496 0.22877035 -0.1377758 -0.027717346
000240 9f d0 fe bd 20 54 6d b9 d7 46 b8 bc 60 0f dc bd
       -0.12442135 -0.0002263342 -0.022494717 -0.1074512
000250 a0 31 a4 bd 87 87 82 3e 3e 2d f2 3b 6c d4 8b be
       -0.08017278 0.25494024 0.007390647 -0.27310503
000260 90 56 dc bd bc 7d 26 be 03 f1 12 be ca ce 6c 3e
       -0.10758698 -0.16258901 -0.14349751 0.23125759
000270 89 ad 2b bc b7 b9 c8 3c 8b 2a ea bd 2d c7 8a 3d
       -0.010478386 0.024502618 -0.11433896 0.06776271
000280 e7 60 a8 bd e2 b5 a0 bd 24 a9 81 be c6 d0 9b bd
       -0.08221608 -0.078471914 -0.25324357 -0.0760818
000290 78 a6 12 be f3 a5 09 be 51 ab 41 bc a8 19 38 bd
       -0.14321315 -0.13442211 -0.01182063 -0.044946343
0002a0 65 98 f6 bd de b4 9e 3e 2a 50 eb bd ae ca ba 3c
       -0.12040786 0.30997366 -0.114898995 0.022801723
0002b0 4c a0 e4 bd 47 bd 3b be 80 8f 05 3d d3 42 2c 3d
       -0.11163387 -0.18333922 0.032607555 0.042055916
0002c0 b1 83 9b 3d f4 95 09 be 77 51 0f be 86 f3 9e bd
       0.075934775 -0.13436109 -0.1399592 -0.07761292
0002d0 8a 7c 56 be 76 a3 54 3d f4 27 ff bc 12 cd 43 bd
       -0.20945945 0.0519137 -0.03114698 -0.047802992
0002e0 88 7b ec bd 68 b4 1a 3e ce 07 0a 3d 9d 47 40 be
       -0.11546999 0.15107882 0.03369885 -0.18777318
0002f0 05 8c 10 bd c4 db 87 3e 75 62 bc 3d eb 46 b6 3d
       -0.035289783 0.26534855 0.09198467 0.08900245
000300 47 ef c0 3d 89 5f 0b be ed ba 48 3e 91 79 ef bc
       0.094206385 -0.13610663 0.19602557 -0.029232772
000310 20 35 06 3e a3 14 aa bd 25 6a 84 bd 81 3d 00 3e
       0.13106203 -0.083047174 -0.06465558 0.12523462
000320 90 d2 24 3e c9 ba 36 3d c6 2d b0 bd 3f ba 26 bd
       0.16095948 0.044611726 -0.086024806 -0.040704962
000330 3c 18 d3 bd c4 52 ec bb 71 a9 8a 3d 90 dc e7 bd
       -0.10307357 -0.007212015 0.067706 -0.11321366
000340 0b 90 74 3d 07 20 0d be d7 76 05 be ad fc ab 3e
       0.059707683 -0.13781749 -0.13033615 0.33591214
000350 ae 18 54 3d f5 c2 31 3e dc b7 23 3e cb 63 12 be
       0.05178135 0.17359526 0.15988106 -0.1429588
000360 08 a3 e6 3d 59 4b 2f be ad fe 85 be 5f 21 80 bd
       0.112615645 -0.17118587 -0.26170865 -0.06256365
000370 38 b0 8d 3d 25 71 32 bd 9c 2c 16 3e 26 6e 8e 3d
       0.06918377 -0.043564934 0.14665455 0.06954603
000380 9a 43 67 3d ec ee d6 bc fe ee cb ba 2e 53 56 bd
       0.056460954 -0.026236974 -0.0015558896 -0.05232542
000390 56 99 31 3c 27 46 6d bd b0 d4 d3 bd 8e 27 05 be
       0.010839781 -0.05792823 -0.10343301 -0.1300337
0003a0 a4 10 1f be 7f f9 de 3c 5b 5d c8 3d f9 c5 92 be
       -0.15533692 0.027218578 0.09783431 -0.28666666
0003b0 49 9d 26 3e b1 d2 5a 3e 4a 2c 19 3e 62 e1 03 3e
       0.16270937 0.21369435 0.14958301 0.12878945
0003c0 31 f7 8a bc 82 70 9c 3d ce 1b 66 3d a2 24 0a bd
       -0.016963573 0.07638647 0.05617886 -0.033726342
0003d0 eb 27 d4 bb f8 d3 a9 bd a2 61 48 bd 9d 5f 05 be
       -0.006474485 -0.08292383 -0.048921235 -0.13024755
0003e0 0f 3c 08 3e 54 e1 d2 bd bd 4a 97 bd e1 b2 3d 3d
       0.1330416 -0.10296884 -0.07387302 0.04631317
0003f0 70 ad fb 3c 34 fe 96 bd eb 19 df bd 9c 19 98 bd
       0.03072235 -0.07372704 -0.10893615 -0.074267596

action_out.weight f4 [3, 256]
000000 0f de 5e bf 65 4b 81 3f b9 8e 4f 3f c0 15 12 3f
       -0.87057585 1.0101134 0.8107715 0.5706444
000010 b8 c6 6d bd 3c 84 91 3e 92 02 3d be e9 85 df 3d
       -0.05805084 0.284212 -0.18458012 0.10914213
000020 b1 9f 07 3e a6 b5 b0 3e 08 3d d0 be 6b c8 bd be
       0.13244511 0.34513587 -0.40671563 -0.3706697
000030 22 f8 33 3f 76 d1 ac be 9e 99 ff 3e a1 ce 00 3f
       0.70300496 -0.33753556 0.49921888 0.5031529
000040 15 a5 cb be b8 a6 3c bf af 34 2e bf 3b c0 60 3f
       -0.39774385 -0.7369189 -0.6804914 0.8779332
000050 af 0d e4 be 8d 9d 25 3f 22 ee f7 3b 0e 22 ce 3e
       -0.4454169 0.6469353 0.0075662294 0.40260357
000060 67 58 3f 3f b1 26 fb 3d 55 df e8 3e a5 c6 bc 3e
       0.74744266 0.12263239 0.4548289 0.36870304
000070 24 4c e8 3e d3 88 82 be 9d c9 8b 3c 42 71 4c bf
       0.4537059 -0.25495014 0.01706391 -0.7986032
000080 15 ad 74 3d 06 c8 1b bf df f3 92 3e 7c 28 68 bd
       0.059735376 -0.60852087 0.28701684 -0.056679234
000090 4e 6a 92 3d f9 89 ed 3e f4 65 f5 3e e8 03 28 3d
       0.07149182 0.46394327 0.47929347 0.04101935
0000a0 6a 0e 99 3e ba d0 48 be 7e d1 36 be 20 36 b0 3e
       0.2989381 -0.19610873 -0.17853352 0.34416294
0000b0 53 ce 1b 3d ec 61 3d 3e 44 92 2e bf 41 de 8e bd
       0.038038563 0.18494385 -0.68191934 -0.06975985
0000c0 51 12 bb bd c5 aa 6f be ec d5 06 be 59 50 2a 3c
       -0.09134353 -0.23404987 -0.13167542 0.010395133
0000d0 a3 6f 8a bd fe 6a ca 3c 67 1c d2 bd ea e6 09 bf
       -0.06759574 0.024709221 -0.102593236 -0.5386797
0000e0 95 6f f2 3e 87 12 95 be ec d0 41 be 71 2e 81 bc
       0.47350755 -0.29115698 -0.18927354 -0.015769215
0000f0 f5 14 7b be c8 9d 9f be 9d a1 d7 3e 28 17 fe 3d
       -0.24519713 -0.31175065 0.4211549 0.124067605
000100 0b 3c 22 bf a3 81 1a 3e 63 ba 38 3e aa 15 9a 3d
       -0.6337287 0.15088515 0.18039851 0.07523663
000110 af eb 86 3e 8f 60 a2 be 54 f6 82 3f dc 83 e6 bd
       0.26351687 -0.31714293 1.0231423 -0.11255619
000120 42 36 b6 bd bb 9f da be 41 2d b1 3e 0d 4c ab bd
       -0.088970676 -0.4269999 0.34604838 -0.08364115
000130 80 cf 00 bf 69 ad 7e bd 44 0a f1 bc 0d dc d1 bd
       -0.5031662 -0.062177096 -0.02942384 -0.102470495
000140 13 59 2a 3f d9 28 81 be 41 73 b5 bd 93 13 a7 3e
       0.66542166 -0.25226477 -0.088598736 0.3263212
000150 ad 11 eb 3d 43 84 3a bd bd 71 5b 3b 3f a8 21 3e
       0.11477981 -0.04553629 0.0033484541 0.15786837
000160 ed d5 81 3e 2a eb 80 be fb 7e b7 bd af 44 1b bd
       0.25358525 -0.25179416 -0.089597665 -0.0379073
000170 9a 71 93 3e ad 98 02 bf 44 c6 09 3f 1a 5f 0a 3d
       0.2879761 -0.51014215 0.53818154 0.033782102
000180 de e8 05 3e 4c 89 83 3f 5f 6c 3a 3f 25 fb af be
       0.13077113 1.0276275 0.7282161 -0.34371296
000190 41 5e 10 bf 2d 9b 14 3e e1 00 06 bf af c4 13 3e
       -0.5639382 0.1451232 -0.5234509 0.14430498
0001a0 c1 46 18 bd 7f de 89 3e ee 68 ca 3e ad c2 82 bd
       -0.03717685 0.26927564 0.3953318 -0.06384788
0001b0 f9 ae 6c 3e 81 e6 e8 3e e5 51 25 3f 34 df 22 3f
       0.23113622 0.4548836 0.64578086 0.6362183
0001c0 1e fe 1b bf cb 43 52 3e 9d ea 4a bd cb 85 a1 bd
       -0.6093463 0.20533673 -0.04954015 -0.07886847
0001d0 9d 18 79 be 9e 54 9d 3e 48 a0 26 3f 21 0e 98 bc
       -0.24325795 0.3072862 0.6508832 -0.018561425
0001e0 d4 b1 41 3e 0a 76 20 be 87 ca fc be c0 29 34 3f
       0.18915492 -0.15670028 -0.49373266 0.70376205
0001f0 22 1b b5 3e 4f b4 a2 3d 0a b7 aa be 31 c8 99 3f
       0.35372263 0.079445474 -0.33342773 1.2014219
000200 1e 34 4b bc 04 59 3d 3f 50 dc b2 ba d7 e2 c9 3e
       -0.012402562 0.7396395 -0.001364598 0.39430878
000210 92 4b 62 3f 09 7e 33 be 77 23 c0 3b ea 73 f4 3e
       0.8839656 -0.17528547 0.0058636027 0.47744685
000220 95 6a d1 3e 98 94 6b be 34 3c 58 3d dd 22 2d bf
       0.40901628 -0.23005903 0.05279179 -0.6763132
000230 05 fe d8 3d 60 bb 36 3e 0b 13 c6 be f8 70 22 bf
       0.105953254 0.17844915 -0.38686404 -0.63453627
000240 37 10 24 bd 9e 55 e1 3c 94 a9 f9 3e 58 39 cf be
       -0.040054526 0.027506646 0.4876219 -0.40473437
000250 4c 2b e6 be 52 87 7b 3b 83 8b 9f 3e 6c 22 1f 3e
       -0.44954908 0.0038380218 0.31161126 0.15540475
000260 0c e9 3c 3e 5e 13 1c 3f 55 07 53 be 43 e6 07 bf
       0.18448275 0.6096705 -0.20608266 -0.53085726
000270 a6 1e 99 be 4c 9c 07 be 09 d0 be 3e 09 5c e4 bd
       -0.29906195 -0.13243216 0.37268093 -0.11150367
000280 d9 41 6c 3e eb ce 86 be ac 07 af bc 9d e9 c3 3e
       0.23071994 -0.2632974 -0.021365963 0.3826417
000290 2c 4d 1a bf 9f 7e b3 3e 37 ac 6f be 36 b2 a2 be
       -0.60274005 0.35057542 -0.23405538 -0.3177659
0002a0 e9 3c 0d 3f f1 ab 9c 3e 50 e1 6d be cc d7 0f be
       0.55171067 0.3059993 -0.23230481 -0.14047164
0002b0 63 de 0c 3e 85 26 22 bd db 1a 90 bc 24 97 02 3e
       0.13756709 -0.039587516 -0.01759093 0.12752968
0002c0 ae 4c 09 3f b4 75 40 be b4 e2 be 3e 60 19 22 3f
       0.5363263 -0.187949 0.37282336 0.6331997
0002d0 1d 40 28 bf ea f7 4f bf 12 e1 ae 3e 85 51 88 3e
       -0.6572283 -0.8123766 0.3415609 0.26624694
0002e0 2f 14 2e 3e 61 38 30 bf 47 46 17 3d 3e 86 1c be
       0.16999887 -0.6883603 0.036932256 -0.15285584
0002f0 ff 96 a4 3e 7b 71 c8 3e 94 84 2d bf a5 a5 b9 3e
       0.3214645 0.3914908 -0.67780423 0.3625919
000300 21 c7 36 3f f9 4a b3 be f2 ad a4 3e 51 79 24 3d
       0.71397597 -0.35018137 0.3216396 0.04015476
000310 2a ca 0f bf c4 9e df bc 0c ab b4 be 50 be fc 3e
       -0.5616785 -0.027297385 -0.35286748 0.49363947
000320 a9 37 a8 be dd d5 d6 be 37 ac 3f 3e d0 5e 12 3e
       -0.32854965 -0.4196004 0.18718038 0.1429398
000330 18 94 10 bd 1d c7 ec 3d 94 9a 58 be c5 f7 f2 3d
       -0.035297483 0.11561415 -0.21152717 0.118636645
000340 b7 f2 a4 3d 4a 2e 2b bf 07 2d 0d 3d 3d 81 5c bf
       0.08054107 -0.66867507 0.03446677 -0.861347
000350 a2 2b ed 3d 04 9b 96 3e 38 9b 05 3f 3d 39 61 be
       0.11580588 0.29415143 0.5218997 -0.21994491
000360 c3 f8 cd 3e ac 83 ac be 01 ab 15 be ca cf 35 bf
       0.40228853 -0.33694208 -0.14616014 -0.71020186
000370 71 fe a8 3e e5 13 05 3f 9b 3b 02 bf 7b 4b 72 3e
       0.33006623 0.5198348 -0.508722 0.23661606
000380 fc 72 5a 3e 9d 67 14 3d 97 cb bc 3e 71 44 de be
       0.21332926 0.036231626 0.36874077 -0.43411592
000390 8a 40 2d bf 4d 51 c7 3b 7b 0b 66 3f be 3b f5 bd
       -0.67676604 0.00608269 0.8986127 -0.119742855
0003a0 1d 25 e6 be 28 d7 15 bf 57 0e 0d 3f 94 4b 0b bf
       -0.4495019 -0.5853143 0.55100006 -0.544122
0003b0 bc 17 e2 3e 20 e2 e7 bc 52 cd ae bd e4 6d 09 bf
       0.44158733 -0.028306067 -0.085352555 -0.53683305
0003c0 ec 5b 73 be d0 e6 fc 3e eb d7 93 3d ec 72 88 3d
       -0.23765534 0.49394846 0.072189175 0.066625446
0003d0 38 85 cf 3e 45 86 ab 3e fe 1e 58 3e 0d 9c 33 bf
       0.40531325 0.33500877 0.21105573 -0.7015999
0003e0 8f ae 98 be 09 bd 2e be 8b 39 0d 3e e3 8a 26 bf
       -0.29820678 -0.17064299 0.13791482 -0.65055674
0003f0 c5 ab 19 bd 45 98 e0 3e 18 8e 90 3d be 93 34 3b
       -0.037517328 0.43866172 0.07058352 0.0027553882

action_out.bias f4 [3]
000000 ef 65 73 be ed 5f 6b bd 3c fd 16 3e
       -0.23769353 -0.05746453 0.14745039
